myCRM/services/next_purchase_lstm.pth (torch, 220165 bytes, 11 tensors)

lstm.weight_ih_l0 f4 [256, 6]
00000000: d205 a8bd 8c78 8f3d 36c2 fb3c 54f4 ca3c
00000010: 11c4 fabc b240 ef3c d1e8 333e 14b6 e23c
00000020: 93ca 5d3d c21f e6bd d777 a93d a52f 38bd
00000030: 75a8 15bb 307c 573c 8665 79bd 5911 183e
00000040: cd92 fbbd 1ff7 b8bd 425c 523d 4e03 c23c
00000050: a568 363e 46ec 41bd e923 51bc 8550 93bd
00000060: 5782 013d 7285 0f3e 5b00 903d c0c8 a7bc
00000070: 1096 503e da2f 9b3d 46b1 70bd e140 c5bc
00000080: 8d5b 743d 6b32 463d 07db a63c 1248 b4bc
00000090: ebd2 763d 9206 6d3d 2822 26bd a513 e63d
000000a0: 7a28 1dbe 8632 a63d 3198 a23d 5e87 0b3e
000000b0: 4ea9 3a3e 579e 223e ddb3 113e efb0 d13d
000000c0: 9702 533d 935d 903d 11c2 d83d 780d 09bd
000000d0: adb4 3f3c 5bb6 98bd 1fef 1b3d 585c cf3d
000000e0: 5aac f7bd fd60 f23c 5874 9ebd 3255 1cbd
000000f0: 7325 e43c 56ca b2bc ae77 063e 30be 183e
00000100: 413f de3c 305b 31bd 0556 3f3e 1eb2 e03c
00000110: d509 393e 0669 92bc 20cf 8b3c df15 b13d
00000120: 1b3f 00be 943d 7f3c e0ca 883d efb2 ff3d
00000130: f838 39be 3c2a c53d 7cb4 933c 9372 d83d
00000140: 99b4 be3d b534 183e d899 673d be9f ed3c
00000150: 4ba2 c43c 8152 b23d 13f4 b63d 5cc0 21bd
00000160: bf27 1b3d 754d 963d 1d7c afb9 24e8 433d
00000170: 2104 4d3d 7661 7e3d a2ba 05bd 714c 3cbd
00000180: 6ae7 b53d 0e89 eb3c deb9 3a3c 5c29 7c3a
00000190: 33e6 22bd 2fe0 143d ad8c 933d fc6a 81bd
000001a0: aa69 18bd 9c67 abbc 4d3f 69bd ebb5 3b3d
000001b0: c7c0 38be 35f6 933d d958 6cbc f629 1ebc
000001c0: dc1e e13d ac4d 853d 8646 d0bc 1c29 123e
000001d0: 4cdd ae3d 34fc ad3c 68a4 483e f70e 9cbc
000001e0: 6f71 453d aa88 0bbe f75d f13d 4eb4 683d
000001f0: 319f d43b c328 bcbd 450a 2cba de69 e0b9
00000200: aa24 c5bd 6ac4 a83d 42c7 023e e578 b53d
00000210: 45be b93d cb39 05be d508 97bb 75b5 ce3d
00000220: a00a b2bb f5f8 3fbd d80f 04be 0160 16bc
00000230: 9d1b 643d a625 bfb9 2478 af3d 78d6 f4bd
00000240: 7202 5fbe 0c07 f53d 5252 94bc 2ace 643c
00000250: 46a2 c4bd 6520 8cbd 295a 533c e797 93bc
00000260: 909d 263e a11d ac3d 8ba1 093e 12aa 05be
00000270: 30be d0bc a3d7 51bd 4d48 3bbd 324e 2bbd
00000280: 8226 57bc b0b6 cabd 94e1 4a3e 3785 d63d
00000290: 17a8 39bd 1540 81bc f0c0 433e f35b 4d3d
000002a0: c2e8 57bb 1b18 c3bc 0f2f 0b3e c5db a83b
000002b0: 0631 cabd 1c5e 903d eee1 85bc 6510 4c3d
000002c0: fbdd 0d3e edac f7bb f3f0 223d dfe6 bc39
000002d0: 9903 b43c de98 03be afbd e33c c570 de3d
000002e0: c1bc 8cbd 648e 053e 800c a53d f287 5c3d
000002f0: 3fe6 1e3e d190 d33c 5bda 343e 80d1 62bc
00000300: 3671 9cbd 5a23 98bd 61b6 29bd 522e 4abd
00000310: ace4 80bb f8a3 10be e852 1c3e 6bfd 883c
00000320: ba7f 143e 000c 2939 650d 9abd 082c 4bbb
00000330: 7d6a 6b3d 6942 983c 4119 013e bf15 023e
00000340: 7080 cdbd 9799 18bd 6bb6 e63d 32f7 61bd
00000350: c59c 403e 07f2 25bd 5120 f2bb f1c7 39be
00000360: 60ca a9bd 2383 943d 3633 243e c6c4 163e
00000370: ed94 12be ea58 963d 5622 2c3e 7084 4b3e
00000380: 0624 39bd bee7 123e 908f bfbc 3d5c 163d
00000390: 9942 9fbd 97e6 a3bd 0071 a63d ae34 d9bd
000003a0: bbb5 4a3c 5f16 e1bd 8c30 163e 1646 a73d
000003b0: 434b 6a3d a739 df3d c9a8 81bd 83a1 85bd
000003c0: 4c97 6a3c 4c7f e3ba ce83 943d 8ee8 e3bc
000003d0: a0bd f6bd 5842 523d 1647 0b3e 5688 d8bd
000003e0: 75ed 913d a1c9 b83d a77b 1ebd 4eee 6d3d
000003f0: 3b02 a03d b6ef 70bd 1132 253e 6e2a b23c
-0.08204235 0.07005414 0.030732255 0.024774708 -0.03061107 0.029205654 0.17569281 0.027674712
0.054148268 -0.11236526 0.08274811 -0.044967312 -0.0022836004 0.013152167 -0.060887836 0.14850368
-0.122838594 -0.090315096 0.051357515 0.023683216 0.17813356 -0.04734447 -0.012764909 -0.07193092
0.031618442 0.14015749 0.07031318 -0.020481467 0.20369744 0.07577486 -0.05876281 -0.024078788
0.059657622 0.048387926 0.020368112 -0.022007022 0.06025974 0.057867594 -0.040559918 0.11234216
-0.15347472 0.08115105 0.079391845 0.13625857 0.18228647 0.15880714 0.14228769 0.102388255
0.05151614 0.07049098 0.1058389 -0.03346011 0.011700791 -0.074566565 0.03806984 0.10125035
-0.1209342 0.029587263 -0.077370346 -0.038167186 0.027849888 -0.021824997 0.13131592 0.14916301
0.027129771 -0.043299854 0.18685158 0.027428683 0.18070157 -0.017872345 0.017066538 0.0864675
-0.12524073 0.015578646 0.0667932 0.12485301 -0.18088138 0.09627196 0.018030398 0.10568728
0.0931179 0.14863856 0.0565432 0.029006835 0.024003169 0.087071426 0.08933272 -0.03949009
0.0378797 0.073389925 -0.00033471073 0.04782881 0.050052766 0.062104665 -0.03264869 -0.045971338
0.08882029 0.028751876 0.011396853 0.00096192 -0.039770316 0.03634661 0.07204566 -0.06319234
-0.037210144 -0.020923428 -0.056945134 0.045827787 -0.18042289 0.07224695 -0.01442548 -0.009653559
0.10992214 0.06508955 -0.025424253 0.14273494 0.08538303 0.021238424 0.19593966 -0.019050105
0.04820388 -0.13626352 0.117855005 0.056812577 0.0064887037 -0.09187462 -0.00065628096 -0.00042803487
-0.09626134 0.08240588 0.12771323 0.088609494 0.09069494 -0.13010328 -0.004609207 0.10093204
-0.0054333955 -0.046868283 -0.12896669 -0.009178163 0.055690397 -0.0003645841 0.08567837 -0.11954969
-0.21778277 0.11964235 -0.01810566 0.013965169 -0.09601264 -0.06842116 0.012899914 -0.018016769
0.16271043 0.08404089 0.1344053 -0.13053158 -0.025481313 -0.051231038 -0.04572325 -0.04182262
-0.01313174 -0.09898126 0.19812614 0.104746275 -0.04532632 -0.015777627 0.19116569 0.050136518
-0.003294513 -0.023815205 0.1359217 0.0051531517 -0.09872632 0.070492 -0.016343083 0.049820323
0.1385421 -0.007558456 0.03978057 0.00036030167 0.021974372 -0.12851283 0.02780041 0.10861353
-0.068719395 0.13042599 0.08059025 0.053840585 0.1551752 0.02582589 0.17661421 -0.013843894
-0.07638781 -0.07428618 -0.041433696 -0.04936058 -0.00393351 -0.14125049 0.15266001 0.016722402
0.14501849 0.00016121566 -0.07522086 -0.0031001586 0.057474602 0.018586354 0.1260729 0.12703608
-0.10034263 -0.03725585 0.11265262 -0.055167384 0.18809803 -0.04051402 -0.0073891063 -0.18142678
-0.08290553 0.07251575 0.1603516 0.147235 -0.14314623 0.07341178 0.16809973 0.1987474
-0.04520037 0.14346215 -0.023383886 0.03670906 -0.07776374 -0.08002966 0.08127022 -0.10605751
0.0123724295 -0.10990595 0.14666957 0.08167665 0.05720068 0.10899668 -0.06331021 -0.065249465
0.014318299 -0.0017356663 0.07251702 -0.027820852 -0.12047887 0.0513328 0.13601336 -0.10572879
0.071253695 0.09022833 -0.038692143 0.058088593 0.078129254 -0.058822356 0.1613238 0.021748748

lstm.weight_hh_l0 f4 [256, 64]
00000000: 181b abbd 17d2 7fbd fb87 47be fa87 fabd
00000010: 8a10 2bbe 0f20 6d3d 29b3 93bd f689 843d
00000020: 48c7 b7bd 6e0f 86bd 67b9 f73b 96bc 07be
00000030: eba8 b4bc 737b 9bbc aefa b3bd 929f 073e
00000040: d3dc e13d f37c 713d c424 043d 2500 53bc
00000050: 51af b73d 1cba 3ebd 76ec 89bd 0f30 9bbd
00000060: fa1b bf3d 72a5 e23c cfa0 bf3c 4ddb 003e
00000070: 5235 29bd 2195 103e 940e eb3d 03a1 60be
00000080: 0462 5a3d 9671 34bd f08c e8bd d00e 1b3e
00000090: 84ef 88bc c7e3 41be e819 25be 669f d3bd
000000a0: 65f4 d0bc df88 853c 6fc5 503d c685 9c3d
000000b0: 10ce 06be 8e0f 033c 0290 7f3d 0d3f 66be
000000c0: b975 073e e7ea eebd 6d24 74bd c02b fa3b
000000d0: 4b1c da3b 6e2b 333d 320b 063e 21e7 163d
000000e0: acbf 503d 6bea 11bc 36b7 b63d e6c0 c8bd
000000f0: 4e43 0fbe 13b5 7cbd ec5c 40bd 17e6 8cbd
00000100: 928c 07be 6701 0e3d 5574 6e3d 1f9a b3bd
00000110: ed8a 813d 9b2d 9abd f93f eabc c0ab 8cbd
00000120: 5ec3 6e3d 8e5c cd3d 9b12 6b3c 77bb c2bd
00000130: 8a3a ffbd 512d 5abb a7e3 ab3d f0e8 2c3d
00000140: aca4 f93d f22d ccbd 8340 d0bd aae2 363d
00000150: 1c08 713d 469e 91bd 6b73 d43c 3752 fdbd
00000160: 9722 913d 10b8 103a daf9 fc3c beab 5fbd
00000170: bec9 073d f3df c73c af2b 76bd 2579 1bbd
00000180: 378c 11bd 9c80 9fbd e529 2e3c 5e7c 1c3d
00000190: 52e7 9c3d 3fb1 9abd 29a8 ffbd f615 68bb
000001a0: 76c3 56bd 1bdc 29bd 7ac6 ec3d e3a0 fcbd
000001b0: 0d0a b6bd f793 ffbd 9d34 2e3d 8486 9c3d
000001c0: 14eb 8cbd 221d c1bd d29d dc3d 25ab 9e3d
000001d0: fb04 d0bd a177 04bd d92b b33d 678e 22bd
000001e0: 0aa3 efbd 2cee d43d 4dcc 8b3d 68c1 023e
000001f0: 7daf ecbc d662 53bd 081e 013e 1dc1 dfbb
00000200: a2c7 c13d c6ec 9dbc 5673 00bb d682 85bd
00000210: 7163 bd3c e6c8 afbd a21d a4bc 13aa aabd
00000220: 6ad0 0c3e c4d5 ec3d 45c3 c13c a61b bbbd
00000230: af4b 4dbd 0a99 833d 9938 903d 9c93 b9bd
00000240: dbd6 5dbd 6fd5 f93d 7591 323d 783e 02bd
00000250: 0de5 c5bd f4d5 b03d bbf5 07be 1fc9 09be
00000260: 72c1 cdbb 765a 03be 2ea5 fe3a 64de 3f3d
00000270: 8e7c 77bd 2011 c03c a69d bf3c a6a8 1abc
00000280: c492 02bd f037 223e 96eb ba3d 16a4 27bd
00000290: cf6b c9bc 575f 91bb 77bd 2bbc 177c b1bd
000002a0: ca41 ad3d d732 b9bd a2cc 9ebd 97d3 04be
000002b0: bfe5 863d 3d29 60bd d478 01bd f3e4 38be
000002c0: e57c f93c dde1 88bd bd2c 963d 8c13 663d
000002d0: 0f34 573e 2d0b 993d 95f7 68bd eb0f 55be
000002e0: 9043 9a3b 495d 3d3d c58c 90bd e093 13be
000002f0: ff9e c63d 10b1 763d bbef a8bc bb5a e5bd
00000300: ddfe 32be 23a5 07be b683 b93c 918a c63c
00000310: 6d9b a23d 4618 25bd c2ce 01bd 16c7 d23c
00000320: 84b7 1abe d066 c2bd 856d 083e da03 c5bc
00000330: 088b 93bd 2c1f 1a3d 2944 bfbd 904e 5dbd
00000340: 6715 243e 2ad5 063e 52b7 1dbe e9a4 1cbe
00000350: 7609 b53d 0c62 0cbd 1497 003e c350 aebd
00000360: fef1 5a3d 49fb 773c c712 833d 3473 f7bc
00000370: 6712 53bd b98c 233e 95be 583d 7769 ac3d
00000380: 8c51 40be 0f5b 13be 2fcc 10bd 5f31 ca3d
00000390: c795 a1bd f837 18be 2dc5 84ba f1ff dabd
000003a0: be66 55bd 4ae8 e3bc 1785 223e b080 1e3d
000003b0: d4f3 b63d cffb 65bd 4401 b93a 533a 973d
000003c0: 8f5c 133e 4492 42bb 7f67 65bd c238 c4bd
000003d0: ae29 423b 0f36 e63d 9cf3 323e 8340 343e
000003e0: 3b36 ecbc 09f0 563d 64d5 793c 5e41 1abd
000003f0: d8d5 13bd 1df1 7a3d a4e8 843c 9669 40bd
-0.08354777 -0.062456217 -0.19485466 -0.12232967 -0.16705528 0.0578919 -0.072119065 0.064716265
-0.08973557 -0.06545912 0.0075599435 -0.13255534 -0.022053203 -0.018979764 -0.08788048 0.13244465
0.11028447 0.05895705 0.032261625 -0.012878452 0.08968986 -0.046564206 -0.067345545 -0.07577526
0.09331508 0.027666781 0.02339211 0.12583657 -0.041310616 0.14119388 0.1147739 -0.21936421
0.05331613 -0.044053636 -0.11355007 0.1514237 -0.016715772 -0.18934546 -0.16123164 -0.10333137
-0.025507161 0.016300617 0.050969537 0.07642703 -0.13164544 0.007999314 0.062393196 -0.2248499
0.13228501 -0.11665898 -0.05960505 0.00763461 0.006656205 0.04374259 0.13090208 0.036841515
0.050964043 -0.008905987 0.089216635 -0.098024175 -0.13990518 -0.061696123 -0.046963617 -0.06879824
-0.13237217 0.034669306 0.05821641 -0.08769631 0.06325326 -0.0752823 -0.028594958 -0.06868696
0.058291785 0.10027419 0.014347698 -0.09508412 -0.12462337 -0.003329117 0.083930306 0.042214334
0.12189612 -0.09969701 -0.10168555 0.044649757 0.058845624 -0.071102664 0.025933942 -0.12369197
0.070866756 0.00055205915 0.030880857 -0.054607145 0.03315138 0.02439878 -0.060100254 -0.03795733
-0.03553411 -0.07788202 0.010630106 0.038204543 0.07661308 -0.07553338 -0.12483246 -0.003541348
-0.0524325 -0.041469675 0.11561294 -0.12335374 -0.08888636 -0.12479394 0.042530645 0.07642844
-0.06880775 -0.09429385 0.10772289 0.07747487 -0.101572 -0.03234065 0.08748598 -0.039686587
-0.11701019 0.1039699 0.06826077 0.12769091 -0.028892273 -0.05160793 0.12609112 -0.006828441
0.09461905 -0.019277941 -0.0019599996 -0.065190956 0.023118706 -0.0858324 -0.020033661 -0.0833322
0.13751379 0.1156421 0.023652682 -0.09136133 -0.050121006 0.06425674 0.07042045 -0.090613574
-0.05415998 0.12198912 0.04359575 -0.031797856 -0.096628286 0.08634558 -0.13277332 -0.13455628
-0.006279164 -0.12827477 0.001942789 0.046842948 -0.06042152 0.023445666 0.023390602 -0.009439623
-0.031878248 0.15841651 0.09126966 -0.04092797 -0.02458754 -0.004436414 -0.010482184 -0.086662464
0.08459814 -0.090429 -0.07753874 -0.1297134 0.06586789 -0.054726828 -0.03160937 -0.18056087
0.030455062 -0.06683705 0.07332752 0.056170985 0.21015953 0.07472835 -0.056876738 -0.20806853
0.004707761 0.04623154 -0.070581 -0.14411879 0.09698295 0.060227454 -0.020622125 -0.11198946
-0.17480035 -0.13246588 0.022645812 0.024235995 0.07939801 -0.040306352 -0.03169132 0.025729697
-0.15109068 -0.09492266 0.13323028 -0.024049688 -0.072042525 0.037627384 -0.093391724 -0.05403
0.1602379 0.13167253 -0.15401962 -0.15297283 0.08839695 -0.034273192 0.12557632 -0.08511498
0.053453438 0.015135595 0.06400066 -0.0302063 -0.05153122 0.1597165 0.05291613 0.08418553
-0.18781108 -0.14390205 -0.035350975 0.09872698 -0.07889896 -0.148651 -0.0010129564 -0.10693348
-0.052099936 -0.027820725 0.15871082 0.038696945 0.08933225 -0.056148347 0.0014114757 0.07384171
0.14390777 -0.0029689232 -0.056006905 -0.09581138 0.0029626894 0.112407796 0.17475742 0.17602734
-0.028834453 0.05247501 0.01524863 -0.037659995 -0.03609261 0.0612651 0.016224213 -0.046975695

lstm.bias_ih_l0 f4 [256]
00000000: f32f 153b 1499 a2bd 88b6 e0bc 7738 003e
00000010: 8bef 7dbd 8223 f4bc 9980 f2bc 4f22 063e
00000020: 9e77 973d 17ca 333d 69bb 2c3c 4659 18b9
00000030: d61e b6bd 40c1 d6bc 71a3 233d 5292 313e
00000040: bc78 7c3c 3b55 b43d cb1b 923d 5de6 e43d
00000050: 7537 5a3e 6d27 343d 62f6 54bd 1fee 613d
00000060: 4291 8b3d 28b3 c93d 96bb 5bbd 3861 d73c
00000070: 618f a23c ae4d 173d c0ae 98bc cb5d 12bd
00000080: 6150 1b3e 5256 e33d 8133 ef3d b5f4 423e
00000090: 66e5 3dbd b050 983d 64b5 313e 1e0a 533e
000000a0: 3ac8 573d b032 163e 2f10 9d3d e4fa 133e
000000b0: 14bd 59bd d7f3 95bd 509d 973d 5c59 02bd
000000c0: 9032 a63d 2e57 3fbc 991d f3bb de57 0c3d
000000d0: 9f32 4bbd 0817 6e3d af39 fd3d cb51 123e
000000e0: f313 c03d 33dc dd3d f796 2f3e d179 253e
000000f0: 2665 2dbb afd7 083c 0b89 0d3e 1c2c adbd
00000100: 748d f83d 973d ea3c e552 a03d b0ca c4bd
00000110: f2f2 0f3d 620a 143d 1386 843d f405 b33d
00000120: 1348 553e 5cfd b7bd ed48 1fbc ef97 ee3d
00000130: 40ce e3bc f0f9 283d fe71 4abc 275a b93c
00000140: a94b 82bd ad7c 55bd 2e2c 183d a46a 433c
00000150: 005a e73c 4c53 9dbc ca0f 4d3d 8175 c53c
00000160: ca19 ab3b cc74 b43d a266 c63d 95ef dabc
00000170: 7ab0 9b3d 8c19 3b3d 23a5 47bd 570c 6bbc
00000180: 5bea 483e d8e6 b5bd 2491 5f3d bbba 30bd
00000190: ef0c ef3d 363d cb3d f297 cabb 37c7 b83d
000001a0: f920 13bd 1d82 80bd 4652 833d 3abb 30bd
000001b0: c2c2 87bb bc95 c6bc 2cf8 22bd ed93 093e
000001c0: 4932 84bd 9649 c63d 4e1c 713a 9dcd f03d
000001d0: 1ccc 153e 8343 d93d 14f2 84bd 2aed e53c
000001e0: ab18 a5bd 888e 3dbd a760 583d cf04 3f3d
000001f0: 8368 b0bd 5910 733d e143 473d bb3d d73d
00000200: a764 42bd b7b2 f5bd 044a 88bd fa3e 06bd
00000210: 54f8 04be bd54 d0bd c27e d03a e21d d2ba
00000220: b5de 0ebe dc47 f5bd 2032 c53d c9b3 cdbd
00000230: 702a 4e3d b799 1b3d 9637 903d 876c 933a
00000240: 871e d93d f0ca 0a3e 2b35 3dbd 67c5 6b3b
00000250: 8331 3b3d 082e 9d3c bce7 3a3c ea2f 03be
00000260: 9204 e53d f5b3 cdbc c033 63b8 04a0 053e
00000270: 3fd1 f2bd aa7e cb3d 4228 d43d 126f a7bd
00000280: ac5e 09be fbaa 563d 69f4 683c 214a ca3d
00000290: 9150 98bd 3fa4 953c 8bca 253d dd2d 5ebd
000002a0: f451 d83c e2f2 723d c5d4 013d 076f 023d
000002b0: 3199 0fbd dd6b d53c 57d5 e9bb 5673 adbd
000002c0: 1cfd d93d b506 d7bd befb 87bd 9c09 503c
000002d0: 438b 78ba f9c8 e93d 4d0c ac3d b42d 073e
000002e0: f306 96bd a74b f83d b8e2 dcbd 6540 e7bd
000002f0: 2c1b 2f3d f4e2 0e3c 21b0 9c3d 391d f3bd
00000300: e55c 713d a7c3 49bc 6554 57bd 5253 d53d
00000310: ac9b 3f3d 989a 36bd 54b6 1c3e 617a 0cbc
00000320: ba36 983c 7071 a53c 27a8 20bc a748 df3c
00000330: 79ce ee3d 2673 5c3d c1b4 0b3e 02c9 293e
00000340: 9d59 7e3c 557a a73d 2c82 123e 470c 203e
00000350: dffb 363e 5b15 1f3e 969c 6f3d 1e02 963d
00000360: 553c c33d 43cc 69bc 5bd5 213d 1d8d 113d
00000370: a889 9e3c f94d 41bd 0a16 62bd 4889 5fbd
00000380: 52f9 13bd 494c 42bd a755 99bb e70a 553d
00000390: c127 32bc 5851 61bd 3fe4 3d3e 894c b53d
000003a0: e533 9abc 5ad5 193e bb37 323e 85c8 243e
000003b0: ecf3 20bd 2d24 a0bb e295 c2bd 324e fb3d
000003c0: 9bc9 103e 0f81 8fbc eae5 20bd e392 ea3d
000003d0: 4b7d 223e 7097 84bd 3b63 8b3c 9818 6abc
000003e0: 8c04 20bc 6dbe 013e 264a 463e 4c18 033d
000003f0: 6e22 863d cfef 88bc 39f9 a43d f99f b13d
0.0022764176 -0.079393536 -0.027430788 0.1252154 -0.061996024 -0.029802088 -0.029602336 0.13099025
0.07395862 0.0438939 0.010542729 -0.00014529107 -0.088926 -0.026215196 0.03995079 0.17340973
0.015409645 0.08805319 0.07134207 0.11176751 0.21310218 0.04398291 -0.05199278 0.05515873
0.06814815 0.098486245 -0.053645693 0.026291475 0.019843759 0.036939315 -0.018638015 -0.03573398
0.15167381 0.11100449 0.116797455 0.19038661 -0.04636135 0.07437265 0.17354351 0.20609328
0.052681185 0.14667773 0.076691024 0.14451176 -0.053158835 -0.073218994 0.07403052 -0.0318235
0.08115113 -0.0116785 -0.0074193 0.034263484 -0.049608823 0.058127433 0.12364518 0.14289014
0.09378805 0.10833015 0.17147432 0.1615975 -0.0026457994 0.008352204 0.13821809 -0.08455679
0.12136355 0.028593821 0.07828311 -0.09608972 0.0351438 0.036142714 0.06470885 0.0874137
0.20828275 -0.08983871 -0.009721977 0.11650073 -0.027808309 0.041253984 -0.012356279 0.022625996
-0.06362087 -0.052120853 0.037151508 0.011927281 0.028241158 -0.019204758 0.050063886 0.024103882
0.00522158 0.0881134 0.096875444 -0.02672557 0.076020196 0.04567866 -0.04874147 -0.014346204
0.1962065 -0.088819206 0.054581776 -0.04314683 0.11672389 0.099237844 -0.006182664 0.09022372
-0.035920117 -0.06274817 0.06412177 -0.043147303 -0.00414309 -0.02424132 -0.039787456 0.13435335
-0.06454904 0.09682004 0.0009197638 0.117579676 0.14628643 0.1060858 -0.06491485 0.02806719
-0.08061346 -0.046278507 0.05282655 0.046635445 -0.08613684 0.059341762 0.04864872 0.10509821
-0.04745927 -0.11996978 -0.06654742 -0.032774903 -0.12985355 -0.101724125 0.0015906917 -0.0016030634
-0.13952143 -0.11976597 0.09628701 -0.10044057 0.05033344 0.03798839 0.07041852 0.0011247554
0.10601526 0.13553977 -0.046193283 0.0035975815 0.045701515 0.019186988 0.011407789 -0.12811247
0.11182512 -0.025110224 -5.4169213e-05 0.13049322 -0.11856317 0.09936269 0.10359241 -0.08175482
-0.1341502 0.052409153 0.014218428 0.0987742 -0.07437242 0.018266795 0.040476363 -0.054242957
0.026406266 0.059313662 0.031697053 0.031844165 -0.035058204 0.02605241 -0.007136028 -0.08469264
0.1064398 -0.10499326 -0.06639813 0.012697604 -0.0009481201 0.114152856 0.08400784 0.13201028
-0.07325544 0.121238045 -0.10785431 -0.11291579 0.042750522 0.008721102 0.076507814 -0.11870808
0.05892648 -0.012314714 -0.05257072 0.10416283 0.04677932 -0.044581026 0.15303928 -0.008574099
0.018580783 0.020195693 -0.009805716 0.027256323 0.11660475 0.05382075 0.13643171 0.16580585
0.015524295 0.0817763 0.14307469 0.15629683 0.17869519 0.1553549 0.05849894 0.073246226
0.09532992 -0.014269891 0.039510112 0.035534967 0.019352749 -0.0471935 -0.0551968 -0.05457428
-0.036126442 -0.047436032 -0.0046794 0.05201235 -0.010873736 -0.055009216 0.185441 0.088524885
-0.018823573 0.15022793 0.17404072 0.16092117 -0.039295122 -0.004887125 -0.09501244 0.12270774
0.14139406 -0.017517595 -0.039281763 0.11453798 0.15868108 -0.06474197 0.01701509 -0.01428809
-0.009766709 0.12670298 0.19364223 0.032005593 0.06549536 -0.016715912 0.08055348 0.086730905

lstm.bias_hh_l0 f4 [256]
00000000: 4702 3a3e 0cc8 37bd 61c3 3cbd 703d 1a3d
00000010: 70d7 43bd 1ef5 b33d f44c ec3d fe2b 91bd
00000020: 5b50 013e 620a cd3c 9ed7 1fbd 4ae4 2b3c
00000030: edb1 b73d 08ca 183e 198e 373e 8601 463e
00000040: e452 0cbb 9697 5c3d 4dad bdbd 88ec 083e
00000050: eb2b 483e 524a b73d 0a88 39bd fc0a f13d
00000060: b719 f53d 3c51 3c3d 5c9a 223b 0932 09bd
00000070: f03d 013e 1a4f 1b3e 0400 71bd ac2c 1f3e
00000080: 3eb3 6a3d 9d33 863b 74c7 623d daca 363e
00000090: fbd7 043e 0590 153d 752a 013e 5d86 b33d
000000a0: ecc4 e8ba bcb3 c73d 29cd 983d 3629 3e3e
000000b0: 6b78 bfbd 278c ad3d 58e9 283e 6db3 873d
000000c0: 5bbc ccbb 5b86 573d 10f2 483d 1663 293e
000000d0: 7746 4abd 7ab6 123e 182b 1f3e b2fc 4c3d
000000e0: efae 883c 3f5f 343d 72cb 823d bc95 dabc
000000f0: 280e 0ebb 7294 7abd 3fff 193e dfae 063e
00000100: ceec d33d 2e08 e1bd ecc6 7b3c 78dc 9bbd
00000110: c79a 913d 7c96 ea3d fe63 9e3d 44b5 e2bd
00000120: 6224 f83c 87fd d5bd 4402 0cbd 7fc6 143e
00000130: fea7 75bc fc71 0b3e ec11 2f3e dcb1 9fbc
00000140: 25e8 babd 7d8a 9dbc 80b1 0a3d b829 be3d
00000150: a120 3e3d 5609 403d 9dce b7bb 06d0 8bbd
00000160: 3b85 2e3d e383 0d3e 05ae 0e3e 654b c63b
00000170: 3269 bf3d 107c a63d 2563 eabd 52ac 3d3c
00000180: 62da 3e3e decb 553d 2a28 583d 4e65 073e
00000190: ef5a b63d d4ca c83d 658f ec3c 1ded ca3d
000001a0: 77f0 93bd 41d9 ea3d 67cb 603d bed6 893c
000001b0: 3320 ffbc 509f da3a 8928 673c dda4 8cba
000001c0: d982 973d ef9b 23bd 7008 ccbd 31f5 113d
000001d0: 7e54 9cbd 62f3 13bc 3839 903c 77dc ed3d
000001e0: 77d6 183d b06c 073e 7749 23bd 9ce5 5a3c
000001f0: 7ca7 103e 7908 7a3d d26c abbd 7953 afbb
00000200: 533e 6bbc dc88 e0bc 7aa1 64bc 4c0d 7abd
00000210: 8be9 64bd c6db 1e3d d63b 64bd ae14 9dbd
00000220: 301a 24bd c742 7ebd 037a 5e3c ef54 c2bd
00000230: 40e5 2ebd 6c64 0dbd e4ef 01be b2b5 09bd
00000240: 360c 853d 7f4b 0f3d 7365 15be 29ee cfbd
00000250: b46e 803c ff6d 28bd ec34 c83d fe9a e0bd
00000260: ea11 af3d be07 ccbd aa0e 4fbd 0ae7 fa3c
00000270: 459e d6bd 1e77 c53d 9e03 d93d 7d48 0b3d
00000280: 5d6f 11be db51 973c 323e 61bd b904 0c3d
00000290: d9b5 50bc 324c bebd 78b2 9f3d 985c c83d
000002a0: 64c3 d6bd 1dcc c43c 257b f43c a791 96bd
000002b0: f310 82bb ab80 a3bd 3673 c939 bc48 e5bd
000002c0: 0516 c2bc ca31 66bd 0010 f9bd d312 b6bb
000002d0: 2cf0 cabc b018 d93c 5365 bc3d 1864 1ebd
000002e0: 5d16 c9bd 771d af3c 0882 bb3d 1540 2b3d
000002f0: ac2d 7cbd f7d8 e4bd c918 503d 5b5e 793c
00000300: 3e74 483e b5ab c3bd be1d 9abd 1971 1d3e
00000310: 7af1 ec3d b858 313d c2be 60bd d4d9 e63d
00000320: d769 0a3d d507 d03d dd5d 433e 54f2 333e
00000330: aa7b 9fbc 4a46 823d 7870 11bd bc80 9d3d
00000340: 3520 3abd c953 ae3c d3f3 053d 98ce 503e
00000350: 3357 533e 0179 8abd e97a 70bd 40e6 88ba
00000360: 0d53 36bd c95d 153e 4ae1 2c3e 3d7e 41bd
00000370: 8ec6 823c e182 023d bd67 c03d d7b7 1a3e
00000380: e08d 1b3c 2ec7 0b3d c030 0d3d d63e fa3d
00000390: 96a1 a93c 7e39 a33c 80b1 a4bc ae59 2b3e
000003a0: 2852 8b3d 9af8 bfbb 95c7 da3d 7c1e af3c
000003b0: e025 50bd 15eb d33d 9271 a23d 7376 d43d
000003c0: 09c7 373c 3028 213e ccef dabd e214 923b
000003d0: 3521 1a3e 8658 223d 03ec 9f3c def1 053e
000003e0: 546d 2b3d 004b 68bd 97b3 093e 47cc 29ba
000003f0: 1725 0c3e d803 233e d3ec b8bc cf26 9cbc
0.18164931 -0.044868514 -0.046084765 0.037656248 -0.04781288 0.08786987 0.11538115 -0.07088469
0.1262831 0.025029365 -0.039023988 0.01049144 0.089694835 0.14920819 0.179253 0.19336519
-0.0021411711 0.0538555 -0.0926157 0.1337148 0.19548003 0.08949722 -0.045295753 0.11769673
0.11967795 0.04597591 0.0024811244 -0.033494983 0.12621284 0.15166894 -0.058837906 0.15544385
0.057299845 0.0040955083 0.055365995 0.17850819 0.12973015 0.0365143 0.12613852 0.08765862
-0.0017758883 0.097510785 0.07461006 0.18570408 -0.0934914 0.084739976 0.16495264 0.066260196
-0.0062480397 0.052618366 0.049058974 0.16541705 -0.049383607 0.14327422 0.15543783 0.050045677
0.016684977 0.044036146 0.0638646 -0.026682727 -0.0021675918 -0.061176725 0.15038775 0.13152646
0.10347901 -0.10987888 0.015367251 -0.076104105 0.071095996 0.11454484 0.07733916 -0.1106973
0.030290786 -0.10448747 -0.03418185 0.14528845 -0.014993666 0.136177 0.1709668 -0.01949399
-0.09126309 -0.019231075 0.033860683 0.09285301 0.046417836 0.046883903 -0.005609347 -0.06826787
0.042607527 0.13819842 0.1393357 0.006051468 0.09346236 0.08129132 -0.114446916 0.011576729
0.18637994 0.052196376 0.05277268 0.13222238 0.08904063 0.098043114 0.02887697 0.09908507
-0.072235994 0.11467219 0.05488148 0.01682603 -0.031143283 0.0016679559 0.014108785 -0.0010730285
0.07398004 -0.03994363 -0.09962547 0.035634223 -0.07633303 -0.009030195 0.017605409 0.11614316
0.037313905 0.13225055 -0.039864983 0.013360407 0.1412639 0.061043236 -0.08370365 -0.005350527
-0.014358121 -0.02740901 -0.013954515 -0.061047837 -0.055886786 0.03878381 -0.055721126 -0.0766996
-0.040064037 -0.062075403 0.013578895 -0.09488856 -0.0426991 -0.034519598 -0.12689167 -0.033620544
0.0649647 0.034984108 -0.14589481 -0.10152847 0.015677787 -0.041120525 0.09775719 -0.109670624
0.08548339 -0.09962414 -0.050551094 0.030627746 -0.10479406 0.096418604 0.10596393 0.034004677
-0.14202638 0.018471649 -0.054990955 0.03418419 -0.012738668 -0.09291877 0.07797712 0.09783286
-0.104864866 0.02402311 0.029843876 -0.07352 -0.0039693057 -0.07983526 0.00038423546 -0.111955136
-0.02369214 -0.056199826 -0.12161255 -0.0055564432 -0.024772726 0.02650103 0.091990136 -0.038669676
-0.098187186 0.021376355 0.09155661 0.04180916 -0.061566994 -0.11174195 0.050804887 0.01522025
0.19575593 -0.09554235 -0.07525204 0.15375175 0.115694955 0.0432975 -0.05486942 0.11272016
0.033792343 0.10157744 0.19078775 0.1757291 -0.019468147 0.06361063 -0.03550765 0.0769057
-0.04544087 0.021280186 0.032703232 0.2039131 0.20638733 -0.06761361 -0.058710966 -0.0010444596
-0.044512797 0.14586557 0.16882816 -0.04723953 0.015963819 0.031863097 0.093947865 0.15109192
0.009494275 0.0341255 0.03447032 0.12219016 0.020706933 0.019924875 -0.02010417 0.16733429
0.068027794 -0.005858493 0.106825985 0.02137684 -0.05081737 0.10347573 0.07931818 0.10374155
0.011216887 0.15737987 -0.10690269 0.004458056 0.1505173 0.039635204 0.019521719 0.13080546
0.04185231 -0.05671215 0.13447414 -0.0006477278 0.13686024 0.15919435 -0.022573864 -0.019061474

lstm.weight_ih_l1 f4 [256, 64]
00000000: b956 55bc b890 7e3c 0797 b9bb c056 ccbd
00000010: a58b 2e3d 3b39 cbbd e10b 123e da54 603c
00000020: 856b d9bd d201 1c3e 969a 15bd a0ae 9a3c
00000030: c261 9d3c 558d a03d 15df c4bd a39f 80bc
00000040: 83bd 60bc 5ff8 353d 48e3 afbc 8013 c23d
00000050: 27ae 533d 0039 d037 8c39 20bd 5db7 e13d
00000060: db16 4ebc 9aaa 063e ceff d4bd 6c68 aabd
00000070: 81f6 d4bd c997 663d 9455 b0bd cc66 2abd
00000080: ef70 ef3c fd4d dfbd d285 beba cc96 7d3c
00000090: 5ee2 983c f567 99bc 0f89 993d 845b 633d
000000a0: 726b 893a a6ed 353d f0a6 a03d da6b 9c3c
000000b0: 0249 6c3d f31f 10be 0362 56bd ede2 143d
000000c0: 3935 2bbd 05e0 1abe 277d 1f3d 207b 493d
000000d0: 2119 5bbd ed3d d0bd f743 cc3a e81c 1f3e
000000e0: d3ac ef3d bca4 9c3c 0ea7 18be 568c 003d
000000f0: 3ab9 2abe 4f77 0fbe ba31 fabd ef9a 493d
00000100: f8be 07bd 4573 ccbc 4cc5 383d 168a f93c
00000110: 72c6 64ba b28f 90bd ad0e 61bd ffe7 1e3d
00000120: 7459 15be 0dd8 62be 4d04 a6bd 0630 933d
00000130: 4b83 b8bd d655 823d 0064 0c3d 7888 c9bd
00000140: c09c b23d 3f9b 65bd adae e9bd f9ad 4abe
00000150: 3068 333e c108 1f3d bd40 45bc 351d 02bc
00000160: 751d 733d 29be fe3d 9cf4 82bc e79f 563b
00000170: 26ca 46bd 2bfb e7bc 3483 003d e051 453d
00000180: 9bd5 d8bc 37d1 2a3a 2ef4 9fbd 785c 83bd
00000190: df8d f83d 9b73 bbbd 634a 56bd 383e 3ebd
000001a0: 8909 7fbd 22d8 443b 3194 86bd 3cf9 53bd
000001b0: 1e0d 93bd f2a0 b7bd 51d0 81bb 15ed 4e3d
000001c0: 8d63 bb3d 03b1 b03d 5d93 e43c 1293 ae3c
000001d0: 6aae 7c3d f901 30bd c3a1 50bd e1d4 fb3d
000001e0: 049e 8cbe 29d7 d8bd 0311 eabd 286b 073e
000001f0: f555 b9bd 2211 333d 797f 77bd 3bc4 85bd
00000200: d604 34bb 131e a13d 1589 a23d b7a2 dcbd
00000210: 1148 d13d 2572 17bc a023 413d 8084 293d
00000220: a882 e0bc b8ad 103a 80b0 bcbc 9c71 ae3d
00000230: e50c 103e 0cf5 f4bd b0ad 663d 32ac 823d
00000240: 7a01 2b3d 85d2 7f3d 003d d7bd fedb 76bd
00000250: 1e3d ba3c 6b86 af3c 26f8 083d f285 d3bd
00000260: 9447 ef3d 7dfc 913d 8d49 b1bd 4323 6ebd
00000270: 505b 81bd d73a f13d b83c 06bd 2720 2a3d
00000280: 308f a3bd d328 883d ffc5 81bd 8bc6 743d
00000290: a139 3ebe cc02 e8bd d72d a8bd 7fcb a7bd
000002a0: f85e 12bd fd7b 553d ab6b 71bd ff49 54bd
000002b0: 33e5 ba3d 5a46 e0bd 4a47 acbd 1848 0e3c
000002c0: cbd3 81bd 8070 cabd 0af4 ae3c 80bd 4a3c
000002d0: d767 dbbd 31c2 8bbd 54fc a33d 00c3 f6bb
000002e0: 316a 813d 2d05 f63d fba0 6a3c 916f 453d
000002f0: 33ac 54bc 56c4 d9bd 7581 5a3c 060e 803d
00000300: e5d6 4cbd f4e9 febd 4e4e 2fbb 10db 48bd
00000310: 97e9 dd3d dcb9 13bd 14c2 e2bd 9a5f 223b
00000320: 7f9a 08be 5541 633d 44a6 20bd e35d cc3c
00000330: cc0e bc3d 1998 023d 6cd4 183d 9725 5ebd
00000340: f463 64bb 765f d33d 9ebb 83bd bbf8 dcbd
00000350: 93f6 3ebd e30a 5cbd f5c8 66bc abab 4bbc
00000360: 38d4 04be 5fce 193e c57d bbbd 6421 a3bd
00000370: 60d8 d53c 097a 30bd 9d0c 873c 61b0 f0bd
00000380: 1904 bb3d f9d3 7abd 226e c33c 2e52 133e
00000390: 62bf 4ebd b28a c63d 1bb9 843d 84e5 cabd
000003a0: 95a1 b0bc 9fb2 c43d 0f84 113d 924c c13d
000003b0: c0b9 8cbc c040 aabd e1c6 0dbd 13e7 93bb
000003c0: bfe9 a63d 058f 36bd ba7b 0c3c 97aa e2bd
000003d0: da99 91bd 8039 97bd 6b78 a33d c9dc 8e3d
000003e0: 81d1 0f3d 1b52 83bd db6c 12be ea08 7e3d
000003f0: 437d 453d 3b4d b83d 8979 4ebd 77be eabc
-0.013021165 0.015537433 -0.005663756 -0.09977484 0.042613644 -0.09923025 0.14262344 0.013692105
-0.10616211 0.1523507 -0.036524378 0.018882096 0.019211654 0.07839457 -0.09612862 -0.01570112
-0.013717058 0.04442632 -0.02147068 0.094763756 0.051679756 2.4822075e-05 -0.03911738 0.11021302
-0.012578691 0.13151017 -0.10400353 -0.08320698 -0.103985794 0.056297097 -0.08610073 -0.04160194
0.029228656 -0.10903547 -0.0014535731 0.015477847 0.018662628 -0.018726328 0.07496845 0.055507198
0.0010484292 0.044416092 0.07844341 0.019094396 0.057686813 -0.14074688 -0.052339565 0.036349226
-0.041798804 -0.15124519 0.038937714 0.049189687 -0.05349076 -0.101680614 0.001558422 0.1553837
0.117028855 0.01912152 -0.14907476 0.031383835 -0.16672221 -0.14010356 -0.12216516 0.04922002
-0.033141106 -0.024957309 0.045110032 0.030461352 -0.00087270804 -0.07058658 -0.054945637 0.038795467
-0.14584905 -0.2215273 -0.08106289 0.07186894 -0.09009417 0.06364028 0.034275055 -0.098404825
0.08721304 -0.056056257 -0.1141027 -0.19792928 0.17520213 0.038826708 -0.012039361 -0.007941534
0.059354264 0.12438614 -0.01598578 0.0032749118 -0.048532628 -0.028318008 0.031375125 0.048173785
-0.026469043 0.0006516161 -0.078102455 -0.064141214 0.12136435 -0.09152909 -0.052317034 -0.046446055
-0.062264953 0.0030036052 -0.06571234 -0.05175136 -0.07180236 -0.08966245 -0.003961601 0.050519068
0.09149847 0.08627512 0.0279023 0.021310363 0.06168977 -0.04297063 -0.050935518 0.12296463
-0.27464306 -0.105879135 -0.11429026 0.1322447 -0.09049598 0.04371751 -0.0604243 -0.065315686
-0.0027468703 0.07867064 0.079363026 -0.10773223 0.10218824 -0.009243523 0.047153115 0.041386127
-0.027406052 0.000551905 -0.02303338 0.08517763 0.14067419 -0.119608015 0.056317985 0.063805
0.041749455 0.062456626 -0.10509682 -0.060268395 0.022734221 0.0214264 0.033439778 -0.103282824
0.11683574 0.071282364 -0.08656607 -0.058139097 -0.063162446 0.11778801 -0.03277275 0.04153457
-0.07986295 0.066484116 -0.06336593 0.059759658 -0.18576671 -0.113286585 -0.08211868 -0.08193111
-0.0357351 0.052120198 -0.05894057 -0.05182838 0.091257475 -0.109509185 -0.08412035 0.008684181
-0.063392244 -0.09884739 0.021356601 0.012374282 -0.10713165 -0.068241484 0.08007112 -0.00753057
0.063190825 0.12012706 0.014320607 0.0482021 -0.012980509 -0.10633151 0.013336529 0.06252675
-0.050009627 -0.12446967 -0.0026749554 -0.04903704 0.10835569 -0.03606592 -0.11072174 0.0024776221
-0.13340186 0.055482227 -0.039221063 0.024947112 0.0918251 0.031883333 0.037311956 -0.054235067
-0.0034849616 0.10320942 -0.064322695 -0.10789629 -0.04662187 -0.05372132 -0.014085998 -0.012431066
-0.1297158 0.1502013 -0.09154848 -0.07965353 0.026104152 -0.04308513 0.016485507 -0.117523916
0.09131641 -0.06123731 0.023856226 0.14386818 -0.050475486 0.09694423 0.064806186 -0.09907058
-0.021561423 0.09604382 0.03552633 0.09438433 -0.017178416 -0.08313131 -0.034613494 -0.00451363
0.08150052 -0.044569988 0.008574421 -0.11067694 -0.07109423 -0.07384014 0.07981952 0.06975705
0.035111908 -0.06412145 -0.14299338 0.06202022 0.048215162 0.089991055 -0.050408874 -0.028655274

lstm.weight_hh_l1 f4 [256, 64]
00000000: 3c0a a4bc 3c27 ac3b ec2e 9fbc 41c8 bdbc
00000010: 6884 b1bd d08c 8bbd f83a 02ba d1ae 7cbd
00000020: 422e 8e3d 1364 263c 9a0f 55bd 0ca1 89bd
00000030: d1f7 e4bd a6d1 b93d 07e7 06be 7c14 d53b
00000040: ceab 9abd 32f4 313d 81d0 94bd cf30 f5bd
00000050: 90f0 9abd 2733 b5bd 8ada adbd 4e2c eabc
00000060: 520f f23d c5bb ecbd fa73 f73d 88fd 143d
00000070: 68b4 043e 7597 003e 53d7 00be 8080 90bd
00000080: 972c 00be 3d46 06bc 6465 d63d 3977 973d
00000090: e340 88bc 2a65 fe3d 4f9f 503d d59d 4d3d
000000a0: c8dd f33c 5b9c dc3c 6282 0cbe 8653 5ebd
000000b0: 9562 2cbc 4c2a 7cbd 18f5 c23c 8521 f5bc
000000c0: 2777 3dbc c8c9 f3bd 7894 b1bd 6e85 043e
000000d0: 46e6 c1bd 4dd2 4bbd af58 c4bc f5cf 94bc
000000e0: b3b2 d9bd 9150 0ebe ed1d bebd a07c 843d
000000f0: e4d1 b43d 509b a4bd 46ba 2a3d 32c7 6c3b
00000100: 0a2b 83bd ba0c 91bd 0db1 d93a 79a4 b23d
00000110: 8d08 ccbd 8342 8d3d fe1d b83b 7107 fbbd
00000120: 63c7 2f3d 7102 43bd e856 af3c 0afb 85bd
00000130: 6b47 2cbc 6d88 ba3d 003c a1bd e522 0fbe
00000140: 6b5b 9dbd 0186 86bd a9ff bfbd 47de 773d
00000150: da11 6fba da51 33bd f164 013d 0bfa f3bd
00000160: 03c6 233d ccfa d03c 1b8d 22bd 8396 ad3d
00000170: 8980 1f3d 98be 7bbd 3a2c 43bd 3f92 933d
00000180: b738 bfbd e5b5 b7bd 1d38 f0bc c482 37bb
00000190: e488 13bd cbb9 433c 8ccc b03c 38a2 c23c
000001a0: d20d d53c 048f 213d d0aa b3bd db11 bebd
000001b0: 4479 f3bd 7d05 0f3e 7308 063d 4bf8 6cbd
000001c0: cee4 7bbd c0ed 37bd ed5a 0ebb d47c dd3d
000001d0: 08f6 96bd cd5a 123d d957 b43b 693e 3a3e
000001e0: 48e4 b7bd eb36 98bc ce74 d73d 0219 38bc
000001f0: 40d4 0cbe d5eb abbd 97d9 ab3d e80b 52bd
00000200: 58ff bbbd b86c 90bd ab02 313d ed2a 603b
00000210: 9bf6 b2bd f7ab 10be 8c98 3bbb a9fa 51bd
00000220: 5225 593d 0825 b93d 742c bbbd 8da6 b5bd
00000230: 894e 793c 7313 32bd 41b9 05be d0cd daba
00000240: 1385 823c e1e3 083c d67a a4bc ca1d f5bb
00000250: 9d51 b43d 0e89 b83d 4cad 74bd 1026 05be
00000260: 13f2 103e 6ccb 973d ce33 a93c 935e 2cbd
00000270: a25f f03c 8a66 2a3e acd6 06bd 0207 f93d
00000280: 0b52 d33d c268 f0bd 41c2 02bd 0549 a9bc
00000290: 9256 943c 3e86 853c 0177 193d b28b 303c
000002a0: 2b69 21bd c6cc 93bd a63c 5d3d 5a08 e83a
000002b0: e8ba 913d e235 6d3b 9cdb d3bd f17a e83b
000002c0: bf4e 223e 864a e2bd 8d49 be3d 4a12 45bd
000002d0: 2841 c6bd f2f2 96bc 790e e33d 30e7 cabc
000002e0: ecbe 2fbd 391d c93b 4f21 3e3c 6278 8fbd
000002f0: ddeb 3bbd 7148 923c 034c f13d 3c12 22be
00000300: 42a1 4c3c b147 eebd 55d1 edbd 9201 22bc
00000310: b14c ad3d 3ac5 813d 287c 16bd 5043 8bbd
00000320: cdb1 0cbd 739b af3d 2d65 94bd 6d41 163d
00000330: f625 24bd 9dbb f63d c260 58bd 70c2 ab3c
00000340: 48bc 12bd faf2 bdbc b626 f6bd a8fa f7bd
00000350: 7450 f3ba a33b 7d3d 44ca a1bb f824 34bc
00000360: bc68 123d 6b48 9d3d c759 73bd 4b6e 52bd
00000370: 6a9b 82bb f21f 0c3e 6272 d2bd 7845 8e3b
00000380: ec51 59bb 8e29 b33b 899c 17bd 50b9 11bd
00000390: 0539 333d 0284 d8bc 509a 273d 03b1 c0bd
000003a0: f875 d83d 544e e13d 3b98 ffbd 8151 e8bc
000003b0: b3f0 5dbd a826 05bd 1cf7 003d 105a 8cbd
000003c0: 387d 843d ac90 a9bc d481 07be a756 c8bd
000003d0: 1d18 9fbd b401 d9bc ee9f ac3d a202 acbb
000003e0: 9bdd b5bd 392a 213d 4ef8 1d3e d5e7 bfbd
000003f0: 0da5 84bd db76 053e acf2 43bd f702 c6bd
-0.020024411 0.0052537005 -0.019431554 -0.023166778 -0.086678326 -0.06813967 -0.00049678935 -0.061690155
0.06942417 0.0101556955 -0.052016832 -0.067201704 -0.1118008 0.090731904 -0.13174067 0.006502686
-0.075523004 0.043445773 -0.072663315 -0.119722 -0.07565415 -0.08847647 -0.08488949 -0.02858558
0.11819328 -0.11559252 0.12082668 0.0363746 0.12959445 0.12557776 -0.1258214 -0.070557594
-0.1251701 -0.008195457 0.104685575 0.07395787 -0.016632503 0.12421639 0.05093318 0.05019935
0.02976884 0.026930025 -0.13721612 -0.054278873 -0.010521551 -0.061563775 0.02379851 -0.02992321
-0.011564053 -0.11903721 -0.08670896 0.12941524 -0.09467749 -0.049761105 -0.023968069 -0.018165568
-0.10629787 -0.13897921 -0.09283052 0.06469083 0.08829096 -0.08037436 0.04168155 0.0036129472
-0.064046934 -0.070825055 0.0016608551 0.08722777 -0.099625684 0.06897452 0.0056188097 -0.12257279
0.04291476 -0.04760975 0.021403745 -0.065420225 -0.010515074 0.091080524 -0.07872772 -0.13978155
-0.07683452 -0.06568528 -0.09374935 0.060514715 -0.00091197866 -0.04377923 0.031590406 -0.11912926
0.03998376 0.025510214 -0.03968535 0.084759735 0.03894094 -0.06146106 -0.0476496 0.072056286
-0.093369894 -0.089702405 -0.029323632 -0.0028001526 -0.03601922 0.011946152 0.02158191 0.023758993
0.026007567 0.03944303 -0.08772814 -0.092807494 -0.11888364 0.13966937 0.0327229 -0.057853978
-0.061497502 -0.04490447 -0.0021721676 0.10814825 -0.073711455 0.035731126 0.0055036363 0.1818787
-0.08979088 -0.018580874 0.105203256 -0.011236431 -0.13752842 -0.08394591 0.08391111 -0.051280886
-0.09179562 -0.070519865 0.043215435 0.0034205273 -0.087384425 -0.141281 -0.002862486 -0.05126444
0.053014107 0.09040266 -0.09139338 -0.08869658 0.015216478 -0.04347558 -0.1305895 -0.0016693417
0.015932595 0.008355112 -0.020078104 -0.007480358 0.08804629 0.09010516 -0.05973558 -0.13002801
0.14154844 0.074118465 0.020654585 -0.04208238 0.029342476 0.16640678 -0.03291957 0.1215954
0.10318383 -0.11738731 -0.031923536 -0.020664701 0.018107686 0.016299363 0.037467007 0.010775493
-0.039406937 -0.07216792 0.054012917 0.0017702684 0.07115728 0.0036195447 -0.103446215 0.007094734
0.15850352 -0.110493705 0.092913724 -0.048113145 -0.09680396 -0.018426392 0.11086745 -0.024768442
-0.042906687 0.006137517 0.011604621 -0.07005383 -0.045879234 0.017856808 0.11782076 -0.15827268
0.012489619 -0.11634768 -0.116121925 -0.00988807 0.08461893 0.06336446 -0.0367395 -0.06799948
-0.03434925 0.085745715 -0.0724586 0.03668349 -0.040075265 0.12047503 -0.05282665 0.020966738
-0.03582409 -0.02318715 -0.12019102 -0.12108356 -0.0018563406 0.061824452 -0.004937442 -0.010995142
0.035744414 0.07679828 -0.05941179 -0.051374715 -0.003985812 0.13684061 -0.10275723 0.0043417774
-0.0033160402 0.0054676 -0.037014518 -0.03557712 0.04375555 -0.026430134 0.04091865 -0.09408762
0.10569376 0.11001268 -0.124802075 -0.028359177 -0.054184627 -0.03250757 0.031485662 -0.068531156
0.06469196 -0.020698868 -0.13233119 -0.097821526 -0.07768271 -0.02649007 0.08428942 -0.0052493373
-0.088801585 0.039346907 0.15426752 -0.0937039 -0.064767934 0.13033621 -0.04783885 -0.09668534

lstm.bias_ih_l1 f4 [256]
00000000: 69e2 803d 2a83 7e3d 4c14 8fbd 19f9 15bd
00000010: b813 2bbc 61b5 0fbd e18a 61bd e156 2f3c
00000020: 7a1f 403d 7d01 cabc 8b77 413d d06c 813d
00000030: b13b 6a3c 063b d83d 5938 0c3e b050 3abd
00000040: 3839 093e a943 b33d 3036 72bc 0e29 b5bc
00000050: 05dd 7e3c e224 f3bd 9e74 ae3b 9cf3 fd3d
00000060: 53b0 22bc b3a7 023e d962 4a3d 5ced 3f3d
00000070: afe1 253e 44c9 ea3d fafe be3d 8078 e93d
00000080: 7aa1 bdbd 176a 9ebd 573d a03d 0781 c13d
00000090: 20e3 3b3d 3268 353d d8d4 cabd 0276 4fbd
000000a0: 5b80 95bd 859a 813d c9a6 93bd 4ed0 283d
000000b0: b43f 58bd c1b5 d7bd 7a4c 1b3e 69f4 c6bd
000000c0: d95d cdbc 8b78 67bd e2b5 283e 4165 bbbd
000000d0: 5013 253e ff2b 3d3d d402 e13d e250 1e3e
000000e0: c90f f53d 741a 1d3e 0fe2 c4bd 5053 e83d
000000f0: 1d00 1ebd c3cf 873d f033 a53c 6e0a 893d
00000100: cfcf eb3d 1e30 ab3d c12a 553d aa72 033e
00000110: 3f53 ab3d 1bf4 173d b904 b33d 878b 283d
00000120: 5d62 3e3d 4c93 813d 8a51 adbd 8416 89bc
00000130: bf2e ad3b b665 a33d 54bd cf3c cb1f a23a
00000140: bcde 293d 829e 89bd e6c6 323d 1ff5 b8bd
00000150: a18c a23c af42 c43c f9a4 b9bd f037 033e
00000160: a5c9 63bd 6f9c 7c3d fb85 1cbd 3eef c03d
00000170: 7f89 12bd cec5 033e 77b8 8dbd e488 e4bd
00000180: 2d43 e0bb 3e0e 01be 5e67 013d 4f32 573d
00000190: 3196 dfbd 16b4 043d 7249 8e3d ad74 a23d
000001a0: a753 3ebd ab0e b23d bc12 8c3c 5d4b 2c3d
000001b0: eb0f 96bd 82c5 ecbd 1519 063d cabf df3c
000001c0: fe05 9d3d e129 97bd 7409 ee3d 8698 b03d
000001d0: e808 8cbc b452 71bd fdca 5dbd 61db 7abc
000001e0: c234 02be f743 073e 565b b63c f527 153e
000001f0: 5a84 083e 03d3 883d 8eaa 01be 33bf 73bc
00000200: 2528 0c3e 9b01 92bd 2169 10bd c321 0b3e
00000210: 48ae 063e a72d 8dbd 2a29 763d 10bc 05be
00000220: 6181 c4bd 3ac1 fdbd a1c5 863b c275 413d
00000230: f864 9bbd 1f09 b93d ff81 a9bd aa98 893c
00000240: 0a14 fcbd d402 1dbd 9ee1 90bd 9694 c5bd
00000250: 05a0 d63d 3294 883c 5c7e 0e3e 9000 0bbe
00000260: 68ef 0dbc 31e6 92bd 152e 2a3d e6d2 1f3d
00000270: 1241 8dbc 5239 3cbd 4c05 36bd af34 be3d
00000280: 13e2 ecbd 062a 8a3d c737 ed3c 8de1 2cbd
00000290: 1d99 a73d 469d 3a3d e4fb bab9 7776 e0bc
000002a0: 6693 fabd 8e9e f73a 31de 0abd 6629 3d3d
000002b0: 04a2 d03c fb88 b83d 28a8 a63d b1a8 2f3d
000002c0: 3c41 cb3c 1b41 04be f025 e8bb 19a7 ee3d
000002d0: effc de3c 4e95 933d 181e aebd 4df5 11bd
000002e0: 4ebb d0bd a944 c6bd 71e9 c1bd 3163 6a3d
000002f0: 78da 39ba d1e3 79bb 1577 d13d 9bc4 08be
00000300: f125 78bd 1a1f f83d 1734 e83d 67e0 64bd
00000310: 1ae2 0dbd b0d8 fc3d c7fe 8c3c 73be 63bd
00000320: 9567 cabc bd60 8c3b 8d34 34bd 48b4 883c
00000330: 9a31 ed3d 29c2 9a3d 49b8 8abd ff53 6cbd
00000340: d6b4 013e c61a 74bd 029b 73bd 54ab 71bd
00000350: 08cc 2b3d 9074 f63c 33fb 813d 853e aabc
00000360: a4e6 4dbd 9557 963c 1a6c 9bbd 506f fb3d
00000370: 5294 173e 6e3b 113e 9a7e d23d 7b72 1c3d
00000380: f2fd a03d 7869 e3bd 4dab d2ba 47c0 ea3d
00000390: 72d5 cdbd 153b 4e3d a144 093d 7c28 383c
000003a0: 8bf9 393d 4c81 753c 1e48 bcbd 4fee d8bd
000003b0: 1233 ce3d 6dbd 773c 201f 223e d002 ae3d
000003c0: 094a 103b ba69 95bd eed4 063e 1912 09be
000003d0: c6ba 57bd a7ee e13c 72fc 8b3d f2b0 b2bc
000003e0: a95c 373e e1be 213d 7e3e 033e 1739 013e
000003f0: 9e41 8b3d 1d56 923c 59de 77bd fe2c db3b
0.06293184 0.062136807 -0.06986293 -0.03661451 -0.010441713 -0.035085086 -0.055064086 0.010701866
0.04690502 -0.024658913 0.047233146 0.063195825 0.014296458 0.10558133 0.1369337 -0.045487106
0.13400733 0.087531395 -0.014783427 -0.022114303 0.015555625 -0.11872269 0.0053239604 0.123999804
-0.009929734 0.12759285 0.049410675 0.046857223 0.16199373 0.114641696 0.09325977 0.11399937
-0.09259315 -0.07735079 0.078242 0.09448438 0.0458709 0.04428882 -0.09903878 -0.05064965
-0.072998725 0.063283004 -0.07209546 0.04121428 -0.052795127 -0.10532714 0.15165892 -0.09714586
-0.025069164 -0.056511443 0.16475633 -0.09150172 0.16120648 0.046184536 0.109868675 0.15460542
0.119659014 0.15342122 -0.0961343 0.113440156 -0.038574327 0.06631424 0.020166367 0.066914424
0.11514246 0.08358787 0.052042726 0.1283671 0.08365487 0.03709803 0.08741135 0.04114869
0.046480525 0.06326923 -0.08462818 -0.01673437 0.0052851136 0.07978384 0.025358833 0.0012369094
0.04147218 -0.06719686 0.043646716 -0.09031128 0.019842448 0.023957578 -0.09064669 0.12814307
-0.055612225 0.061672624 -0.03821371 0.09420632 -0.035775658 0.12868425 -0.069199495 -0.11158922
-0.0068439455 -0.12603089 0.03159272 0.052538212 -0.109173186 0.032398306 0.06947602 0.079324104
-0.046466496 0.08694204 0.017098777 0.04206406 -0.07327255 -0.11561109 0.032738764 0.027313132
0.076671585 -0.07381035 0.11622897 0.086228415 -0.01709409 -0.058916762 -0.054148663 -0.015311093
-0.12715438 0.1320952 0.02226035 0.14566024 0.13331738 0.06680872 -0.12662718 -0.014877128
0.13687189 -0.071292125 -0.03525651 0.13587098 0.1315242 -0.06893473 0.06009785 -0.13060021
-0.095949896 -0.12390371 0.0041129147 0.047231443 -0.07587618 0.09034943 -0.08276748 0.016796429
-0.1230851 -0.038332775 -0.07074283 -0.09647481 0.1047974 0.016672228 0.1391539 -0.13574433
-0.008663036 -0.07172812 0.041547853 0.039019488 -0.017242942 -0.045953102 -0.044438645 0.09287392
-0.11566558 0.067462966 0.02895726 -0.04220729 0.08183501 0.045560144 -0.00035664358 -0.027400238
-0.12235145 0.0018891857 -0.033903304 0.04618206 0.02546788 0.09010502 0.08137542 0.042885486
0.02481138 -0.12915461 -0.0070846006 0.11652965 0.027220218 0.07206212 -0.08501834 -0.035634328
-0.101919755 -0.09681065 -0.094683535 0.057223503 -0.00070897443 -0.0038130174 0.10227791 -0.13356249
-0.06058306 0.12115307 0.1133806 -0.05587807 -0.034639455 0.12346017 0.017211331 -0.05560155
-0.024707595 0.004283993 -0.04399543 0.016687527 0.11581726 0.07556564 -0.06773431 -0.057697292
0.1266664 -0.059595846 -0.059474 -0.05900128 0.041942626 0.030084878 0.063467406 -0.020781765
-0.050268784 0.01835231 -0.07588978 0.122770905 0.14802673 0.14182827 0.102780536 0.038195115
0.07860936 -0.11104101 -0.001607278 0.11462455 -0.10050477 0.050349314 0.033512715 0.011240121
0.045404 0.01498444 -0.09193443 -0.10592329 0.10068335 0.015120846 0.15832186 0.0849663
0.0022016785 -0.07295556 0.13167164 -0.1338581 -0.052668355 0.027579619 0.068352595 -0.02181289
0.17906441 0.039488677 0.12816808 0.12619434 0.06799625 0.017863328 -0.06051478 0.006688713

lstm.bias_hh_l1 f4 [256]
00000000: 5fbe 093e 056f 9bbd 3a2b 8cbd 7da1 633c
00000010: f928 e83d bb17 913b 0a3f dabc a730 433e
00000020: a4eb 193e 0596 ca3d 558e db3d b2fa 743d
00000030: a435 6a3d 6104 783d cd69 873d d955 70bd
00000040: 0005 943d 8911 0d3e 971d 0fbb 91d5 9c3d
00000050: 36c9 1cbd 1e90 a6bc 6530 a9bd 5369 923d
00000060: 2162 203c 90f4 cfbd b3c3 173e eb0a d83d
00000070: 6573 3c3e 8051 0d3e a8c2 bd3d bba3 753d
00000080: 59c9 b33c 7298 62bd 511a 9ebd f879 15bd
00000090: 2600 b0ba 7401 643d 37b1 9cbd ca3e 91bd
000000a0: 0f8e 18bc 3daa 063e a62c dcbd f989 053e
000000b0: d718 b1bc 5b59 9b3d 5060 c93d 092b d3bd
000000c0: d52a 1d3e 69a6 95bd ecd8 163e 23f5 c7bd
000000d0: ad74 023e 186e 11bd 1e5d 353e 9bf8 bb3d
000000e0: 61da 0d3e 6a9d 34bc 3587 c2bd 5dcf 203e
000000f0: 7f6a 2c3e caf9 b03d 0d9b f33a ad1b 933d
00000100: b78c 88bd c52e babb 9bb9 d03c 7093 1c3d
00000110: 6308 d43d 758c 6e3c dfcc 073e 2427 103e
00000120: 37dc e3bd 3b96 f1bd 8478 253d bac2 91bc
00000130: 23f2 723c a98d 67bd 4ef7 283d 382c 18bc
00000140: 9eaa 613c 0102 1b3d c98e c4bc efd0 d3bc
00000150: 9f09 56bc 18a4 debd 7e00 2e3b 6d11 8a3c
00000160: f2b1 ad3d f6ab 82bc c778 ab3d 027b db3d
00000170: 4f7d 2ebd 0241 52bd 6fb5 b23d fe00 483c
00000180: 5dea 973d 59a8 9d3d 238c e73d dc90 5a3c
00000190: 10c8 983a fbf4 ce3d d5d5 713c cf7f ab3d
000001a0: 9395 043e 238c 813d e4d9 f63d d1f8 dfbd
000001b0: 5d2f 9abd b9c6 343d 9ce0 abbd 9e2c 9dbd
000001c0: 55a0 0bbc 9be5 d1bd 1a2f bc3d 50cc 4cbd
000001d0: 4a90 9a3d 7a97 f4bb 03e0 2d3d d489 2cbd
000001e0: f3d6 debd 8d32 01bc 4b0c a83d d428 bbbd
000001f0: 68e5 4dbd 3493 0f3d bec0 f0bc 0f7a 243d
00000200: 8556 9b3d 4768 93bd e68d bbbc 1708 053e
00000210: b16a cb3c ae0b f0bd c93a 00be bc00 0ebe
00000220: c350 e13d c34a 063d 3510 113e b634 3b3d
00000230: 0932 853c 3448 103d 61a7 8a3d 6bdd 86bd
00000240: 78f6 3cbd ab13 d8bd e655 153d 1f60 e3bc
00000250: 75b7 1a3c 41cb d23d 390d 253d c621 cbbd
00000260: d658 063e a3fa c0bd 0652 183d ead2 c3bc
00000270: ac50 903c 33a6 8a3d 5fcf 8ebb 5b01 a9bd
00000280: 71a5 a9bd 7d7e 413d c8b3 773d 4ca5 79bd
00000290: f7d9 0cbd 4b35 fe3d 393b ff3d e463 cabd
000002a0: c6c6 8b3d a9c5 863d 72bf cfbd 60c7 cabd
000002b0: 8ea7 c7bc a840 4cbb 6f33 bf3b b0d3 7fbc
000002c0: 6d48 f03d 6919 abbd 420d f2bd e1fd ed3d
000002d0: a5d1 83bc 9f29 983d f7a1 bb3c 04d9 f43b
000002e0: ac4f c73d e2ae 92bd 95d9 d23d 91af c5bc
000002f0: 6878 9a3c 2d37 0dbd e302 bd3c 74b9 84bd
00000300: b099 e9bb ff4e 49bd 58d4 823d 2f4f 29bb
00000310: 44b6 bb3d ae86 68bd 2f67 e13d ec7f c13d
00000320: 8f77 9dbc 2673 313d 41b4 80bd f0df c13c
00000330: c0b4 97bd 580a 19bd c631 81bd 402e d2bd
00000340: 8cd2 2fbd d3b3 e43d 07b5 b6bd dce9 cf3d
00000350: b049 043e 1052 0a3d babc 41bb cb32 6d3d
00000360: 7ee8 a5bd c889 023d c75e 74bd 88cd c0bd
00000370: 0229 053e 837d 26bd 2563 75bd 8964 fe3d
00000380: 12fd 78bd 2735 043e 5aca 9f3d e576 29bd
00000390: 0dd4 093c e9d1 fbbd 6bf6 0cbd 2b19 133e
000003a0: 5ac2 a03d 6895 193e dcde ab3d f1ec dd3d
000003b0: def1 0b3e a5d9 463d 3fcc 1a3e fbf2 033e
000003c0: d60d 833c 86cb 61bd 8f52 223e bcbb 95bd
000003d0: b0f6 ac3b 2444 83bd 1787 0d3d fbd4 1e3d
000003e0: d3a9 133e 585d 153d 2568 503d fdbe 163e
000003f0: 50ec 4cbd d19f edbd ca99 6a3c 8a32 e63d
0.13451527 -0.07589535 -0.06844182 0.013893482 0.1133594 0.0044278777 -0.026641387 0.19061528
0.15031296 0.09891895 0.10720507 0.059809394 0.057180062 0.06055105 0.06611977 -0.05867562
0.07227516 0.1377622 -0.0021837705 0.07657922 -0.038277827 -0.020332392 -0.08261184 0.07148995
0.009789021 -0.101540685 0.14820747 0.105489574 0.18403395 0.13800621 0.09265643 0.0599706
0.021946596 -0.055321164 -0.07719863 -0.03649327 -0.0013427779 0.05566545 -0.076509885 -0.07092054
-0.009311213 0.13150878 -0.107507035 0.13040914 -0.02161829 0.075854026 0.09832823 -0.10310943
0.1534837 -0.07307131 0.14731187 -0.09763553 0.12739821 -0.035505384 0.17711303 0.09178277
0.13852836 -0.011023859 -0.09498445 0.15704103 0.168375 0.086413935 0.0018585637 0.07183013
-0.06667464 -0.005681845 0.025479129 0.038226545 0.10353162 0.014559855 0.13261746 0.14077431
-0.11125987 -0.11796232 0.040398136 -0.017793048 0.014828238 -0.056531582 0.041251473 -0.009287886
0.013773588 0.037843708 -0.023993867 -0.025856463 -0.013063817 -0.10871142 0.0026550586 0.016854012
0.08481206 -0.015951138 0.08372646 0.10716821 -0.042599972 -0.051331528 0.08726012 0.012207268
0.07417748 0.076981254 0.11306026 0.013340201 0.0011656303 0.1010532 0.014760454 0.08373987
0.12947683 0.06325557 0.12053278 -0.1093613 -0.07528565 0.04413483 -0.0839245 -0.07674526
-0.008522113 -0.10248872 0.091886714 -0.049999535 0.07547052 -0.0074643465 0.042449962 -0.04212363
-0.10880842 -0.007885587 0.0820547 -0.09138647 -0.050267607 0.035052493 -0.029388782 0.040155467
0.07584862 -0.07197624 -0.02289481 0.12991367 0.024831148 -0.11720978 -0.12522425 -0.13867468
0.11001732 0.032786142 0.14166339 0.045704566 0.01625921 0.03522511 0.06770206 -0.06585201
-0.04613349 -0.10550626 0.036458872 -0.027755795 0.009443154 0.10292674 0.040295813 -0.09918551
0.13119826 -0.09422805 0.0371876 -0.023904283 0.017616592 0.06769981 -0.0043582167 -0.08252212
-0.082835086 0.04723977 0.060474187 -0.060948655 -0.034387555 0.124125086 0.12462468 -0.09882334
0.068250224 0.065806694 -0.10143937 -0.09901309 -0.024371888 -0.0031166468 0.005834989 -0.015614435
0.11732564 -0.08354456 -0.11818935 0.11620689 -0.016091177 0.074298136 0.02290438 0.0074721593
0.09731993 -0.071622625 0.10295407 -0.024131568 0.018856242 -0.034476448 0.023072666 -0.06480685
-0.0071289167 -0.049147602 0.063881576 -0.002583455 0.09165624 -0.056769066 0.11006009 0.09448227
-0.019222049 0.043322705 -0.06284381 0.023666352 -0.07407522 -0.03736338 -0.06308322 -0.10262728
-0.042925403 0.11167111 -0.08921247 0.10152027 0.12918735 0.033769667 -0.0029561953 0.057909768
-0.08100985 0.03186968 -0.0596607 -0.09414202 0.13003924 -0.04064704 -0.059909005 0.12421519
-0.06078822 0.12910901 0.078022674 -0.041373152 0.008412373 -0.122958966 -0.03441469 0.1436507
0.078495696 0.149984 0.083921164 0.108362086 0.13666484 0.048547406 0.15116976 0.12885658
0.015997808 -0.055125736 0.15851806 -0.07311198 0.005278431 -0.06409481 0.03455266 0.038777333
0.14420252 0.036465973 0.05088057 0.14721294 -0.050030053 -0.11602748 0.014318893 0.11240108
